Task_1/subtask_1/autoencoders/Variational.pth (torch, 58119 bytes, 10 tensors)

fc1.weight f4 [10, 866]
0	0xb9495d4e	-0.00019203612
1	0xba17f9fc	-0.00057974434
2	0x3c202a77	0.009775749
3	0x3a6ca38b	0.00090270553
4	0xb982cf58	-0.00024950015
5	0xb8d6847d	-0.00010228993
6	0xb805a0f7	-3.185958e-05
7	0x3ac374da	0.0014912144
8	0xb99956f5	-0.00029247222
9	0x3d10256e	0.035191946
10	0x3a11c028	0.00055599445
11	0x3b95bb0b	0.0045694164
12	0xba2568ab	-0.0006309847
13	0xba1dc172	-0.00060179003
14	0xb9efc4c1	-0.00045732225
15	0xb92e56e9	-0.0001662631
16	0xbc5b61c9	-0.013390013
17	0x3d2fffd6	0.042968594
18	0x3c6852e9	0.014179924
19	0xbbb2420c	-0.0054400023
20	0xba01493b	-0.00049318717
21	0x3cd89bad	0.02644142
22	0x3c89c636	0.016818147
23	0xbca47fd6	-0.020080488
24	0xbb107e7a	-0.0022048042
25	0xbc70504e	-0.014667584
26	0xbc53ab68	-0.012919284
27	0xbb99f423	-0.004698293
28	0x395cc89c	0.00021055568
29	0xbbc5d1b8	-0.0060369633
30	0x3b18e1db	0.002332798
31	0xbb319376	-0.002709595
32	0xbad0281d	-0.0015881095
33	0x399996ee	0.00029294885
34	0x3a06134e	0.0005114571
35	0x3ae98ece	0.0017819048
36	0xba17e7c0	-0.00057947263
37	0x3beda28d	0.0072520436
38	0xba0fe831	-0.00054896163
39	0xba5912dc	-0.00082807033
40	0x3aa84dca	0.0012840566
41	0x3adc4c87	0.0016807475
42	0xbbef7b4d	-0.0073084
43	0x3b0f8fae	0.0021905708
44	0xb91428db	-0.000141296
45	0xbb4b9e53	-0.003106971
46	0xba89fda6	-0.0010527864
47	0x3a5dc52a	0.00084598607
48	0x3cd3e999	0.025868224
49	0x39850fff	0.00025379655
50	0x39065c03	0.00012813513
51	0x3a8d0ba5	0.0010760917
52	0xb9e3420c	-0.00043346023
53	0x39bca30d	0.00035979637
54	0xbcfa4de2	-0.030554716
55	0xba3a1879	-0.00070989836
56	0xba8a3414	-0.0010544085
57	0x3a7d229e	0.00096563424
58	0x3af7f8a2	0.0018918703
59	0x3a8f0c94	0.0010913783
60	0xbaa1c82b	-0.001234298
61	0x39d6101e	0.0004082927
62	0xba89f220	-0.0010524429
63	0xb9811fe5	-0.0002462856
64	0x3af651f1	0.0018792731
65	0x38855d31	6.3592925e-05
66	0x3a9b0bfc	0.0011829133
67	0x3a67aa62	0.00088373397
68	0x3b6c66a7	0.0036071928
69	0x3c7e1727	0.01550845
70	0x3b08c93a	0.0020871894
71	0xbc56bf7d	-0.013107178
72	0xb9db0fec	-0.00041782798
73	0x3b4adf96	0.0030956022
74	0xbc012d4e	-0.007884337
75	0x3b7054a0	0.0036671534
76	0xbad7264d	-0.0016414613
77	0xba5e3a98	-0.0008477359
78	0x3a2cf7dc	0.0006598213
79	0xbabb9384	-0.0014310931
80	0xbcbb223c	-0.022843473
81	0x3c4af52c	0.012387555
82	0xbacbf5d4	-0.0015560933
83	0x3aa7f718	0.0012814729
84	0x3b0445fb	0.0020183313
85	0xbcb264b0	-0.021776527
86	0x3ab8e081	0.0014104993
87	0x3b339edf	0.0027407927
88	0x3a11eabc	0.0005566289
89	0xbacb53bd	-0.0015512627
90	0xbb70b830	-0.0036730878
91	0x3b74a5ad	0.0037330196
92	0x3bbe55fb	0.0058085895
93	0x3b475043	0.003041283
94	0xbb7354e2	-0.0037129452
95	0x3a33fe01	0.00068661576
96	0x3b9d2bde	0.004796489
97	0xbc2eff9f	-0.010681062
98	0x3b94c657	0.0045402455
99	0x3ba659d6	0.0050766272
100	0xbb57b04c	-0.0032911478
101	0xba4efcb9	-0.0007895935
102	0x38d9acb2	0.00010379533
103	0xbb1c3010	-0.0023832358
104	0x3ab499a7	0.0013778702
105	0x3b9826f7	0.004643317
106	0xbaea3665	-0.0017868994
107	0xba64cbee	-0.00087278977
108	0x3a09cf28	0.0005257004
109	0x3b073910	0.0020633377
110	0x3c2e06d1	0.010621742
111	0xbc1eab76	-0.009684434
112	0x3c2d4d8e	0.0105775725
113	0xbbce9a31	-0.006305002
114	0x39c4291d	0.00037414665
115	0xba5dceaa	-0.00084612763
116	0xbb37dc52	-0.0028054905
117	0x3b88151a	0.004152906
118	0x3b940627	0.004517335
119	0xbae98a15	-0.0017817641
120	0x396d5dfa	0.0002263709
121	0x3c54014c	0.012939762
122	0x39b0a664	0.00033693307
123	0xba940bf4	-0.0011295066
124	0xbc904e3a	-0.017615426
125	0x3bb65d62	0.0055653313
126	0xbbac6c7a	-0.005261955
127	0xba6cee28	-0.00090381736
128	0xba34c823	-0.0006896278
129	0x3acdf4f2	0.0015713258
130	0x397e2824	0.00024238281
131	0xb993155a	-0.00028053933
132	0xbb0ba98f	-0.0021310782
133	0xbb016d6a	-0.0019749054
134	0x3ba432fa	0.0050109597
135	0x3961c27b	0.00021530122
136	0x3abec266	0.0014553785
137	0xb9d58d51	-0.00040731815
138	0xbbade0f5	-0.005306358
139	0x3b909131	0.0044118394
140	0xba83731e	-0.0010028814
141	0x3b0ccc33	0.0021484017
142	0x3ae0adb7	0.0017141615
143	0xb8dd7260	-0.00010559405
144	0x3a61ab7b	0.00086086214
145	0xb9fcab11	-0.0004819264
146	0x3b00cc6b	0.0019653093
147	0x3ae76570	0.0017654132
148	0x3ce83e55	0.028350035
149	0x3d5e12d8	0.05421719
150	0xb9e4b692	-0.00043623574
151	0x3a53023e	0.00080493453
152	0x3c6727dc	0.014108624
153	0xbb603608	-0.0034211893
154	0xbcf3e24f	-0.029770998
155	0x3d1ba477	0.037998643
156	0xbd4837c3	-0.048881304
157	0x3a3772e0	0.00069980137
158	0x3a1ed776	0.0006059328
159	0xbb0c434d	-0.002140242
160	0xba8dfea2	-0.0010833333
161	0xbc1a9325	-0.009434496
162	0xba89bfb9	-0.0010509408
163	0x3c1263b4	0.008934904
164	0xbc243e86	-0.010024672
165	0xbb6b180e	-0.0035872492
166	0x3c50fdb6	0.012755802
167	0x3c14bbd2	0.009077983
168	0x3b1bf049	0.0023794344
169	0xbc165b32	-0.009177016
170	0x3c1aa852	0.009439545
171	0x3a7decbe	0.00096864614
172	0xbc232478	-0.009957425
173	0x3a836f5d	0.0010027696
174	0xbaf65ff6	-0.0018796909
175	0x3acd79d0	0.0015676562
176	0xbbacf9bb	-0.0052787936
177	0xbb652076	-0.0034961975
178	0x3bdccbe3	0.0067381724
179	0x3b1ff97e	0.0024410184
180	0x3c046886	0.008081561
181	0x3c3de1bf	0.011589467
182	0xbb542b69	-0.0032374507
183	0xbd7ed20c	-0.062212035
184	0x3b5e35dc	0.0033906614
185	0xbbb87a7f	-0.005629837
186	0x3c015dd1	0.007895903
187	0xbba2fa74	-0.004973704
188	0xbce14b13	-0.027501618
189	0x3d28bd82	0.041196354
190	0xbb958aa3	-0.004563646
191	0x3a481782	0.00076328975
192	0x3b01b0e4	0.0019789273
193	0xbc35f723	-0.011106285
194	0x3c8f4160	0.017487228
195	0xbca59381	-0.020211937
196	0x3bfd493b	0.007729677
197	0x3c20f0a2	0.009822996
198	0xbacc6477	-0.0015593906
199	0xbca3cc10	-0.019994766
200	0x3ccc1806	0.024913799
201	0xbad953b9	-0.0016580737
202	0x3afcb4d2	0.0019279963
203	0x38af9078	8.37156e-05
204	0xbb5848ca	-0.003300237
205	0x3b32f821	0.002730854
206	0xbbe2ba08	-0.0069191493
207	0x3bd74527	0.006569523
208	0x3c83635b	0.016038587
209	0xbc794fd3	-0.0152167855
210	0xbc1a1402	-0.009404184
211	0x3cccebfd	0.025014872
212	0xb9dde07d	-0.00042319662
213	0xbb8efdac	-0.004363736
214	0x3bcaf049	0.006193195
215	0xbc76dbfa	-0.015067095
216	0xbc056f61	-0.008144231
217	0xb9cb7058	-0.0003880288
218	0xbb2c4985	-0.0026288938
219	0x3c7ae059	0.015312278
220	0xbbfbb378	-0.0076813065
221	0xbcac2e9f	-0.021018324
222	0xba3003ff	-0.00067144627
223	0xbbd67add	-0.006545408
224	0x3b4d490c	0.0031324057
225	0x3cad9367	0.021188451
226	0xbaf39f8a	-0.0018586975
227	0x3c73df2e	0.014884753
228	0xbb02c6b3	-0.001995486
229	0x3c10cc11	0.008837716
230	0x3c7df04b	0.015499185
231	0x3c46380c	0.012098324
232	0x3cd56f4e	0.02605405
233	0xbd02b2b3	-0.031908702
234	0x3bb12e46	0.0054071276
235	0x3cd66fc7	0.026176346
236	0x3a844a54	0.0010092952
237	0xba2b6279	-0.0006537806
238	0xbbe8bd36	-0.007102634
239	0x3c0fb8c0	0.008772075
240	0xbc41b6d1	-0.011823372
241	0x3a8590b4	0.001019022
242	0x3a9f3ece	0.0012149455
243	0xbc27adc4	-0.0102343
244	0xba3db460	-0.0007236656
245	0x3be97607	0.0071246657
246	0xbb406325	-0.002935597
247	0xbbc20fa3	-0.005922274
248	0xba165f9f	-0.00057362946
249	0xbb5e8b2e	-0.003395747
250	0xbad9eb85	-0.0016625976
251	0x3bcadb78	0.0061907135
252	0x3bd3850b	0.006455069
253	0xbab2ddd1	-0.0013646429
254	0xb982cf1a	-0.00024949835
255	0xbbcb5d4d	-0.0062061907

fc1.bias f4 [10]
0	0x3ddee4af	0.10883462
1	0xbcf1d9cd	-0.0295228
2	0x3cc3e828	0.023914412
3	0xbc97c81e	-0.01852804
4	0xbd13e978	-0.036111325
5	0x3c70617c	0.01467168
6	0x3cc8ee60	0.024527729
7	0xbc4d101b	-0.012516047
8	0xbbeb2c22	-0.007176892
9	0xbcb17a21	-0.02166468

fc2.weight f4 [10, 10]
0	0x3744659d	1.1706169e-05
1	0xbc89e15d	-0.016831094
2	0x3a6241fd	0.0008631049
3	0xbe0edb1d	-0.13950773
4	0xbe921f0f	-0.2853932
5	0x3daf83e5	0.08570079
6	0x3de1bd48	0.11022431
7	0xbc9eb03e	-0.019371148
8	0x3bef3891	0.0073004444
9	0x3cfd76d5	0.030940453
10	0xb79731a7	-1.8023724e-05
11	0x3d86548d	0.065590955
12	0x3acb1cbc	0.0015496234
13	0x3e813ff2	0.252441
14	0xbe263afa	-0.16233435
15	0xbe131efb	-0.14367287
16	0x3cc15235	0.02359877
17	0x3d0ae508	0.033909827
18	0x3c094e58	0.008380495
19	0x3e9a17e1	0.30096343
20	0xb8b482e7	-8.607451e-05
21	0x3e746786	0.23867616
22	0xbc5bec6a	-0.013423065
23	0xbd17bd79	-0.03704593
24	0x3e9ddaf6	0.30831116
25	0x3e2f31b8	0.1710881
26	0xbd78eab7	-0.060770717
27	0xbdea7520	-0.11448121
28	0xbba61ed4	-0.005069593
29	0x3e8baacb	0.27278742
30	0xbc771f75	-0.015083184
31	0xbe531fb1	-0.20617558
32	0x39513a1a	0.00019953438
33	0x3e9b0393	0.30276164
34	0x3e93337f	0.28750226
35	0x3dee09bf	0.11622953
36	0x3d0a701b	0.03379832
37	0x3e2064fe	0.15663525
38	0x3cbee9bd	0.023304814
39	0x3daff621	0.08591867
40	0x36d8fd56	6.466794e-06
41	0x3e416a16	0.18888125
42	0x3cc0504d	0.02347579
43	0x3e68402f	0.22680734
44	0xbe093f31	-0.13403012
45	0xbe8a6fca	-0.27038413
46	0xbe22e106	-0.15906152
47	0x3e508294	0.20362312
48	0x3c8d45f8	0.017245278
49	0xbd14ca27	-0.0363256
50	0x3a9a49dd	0.001177128
51	0x3e53a0e5	0.20666845
52	0xba7f797f	-0.00097455824
53	0xbdcbd546	-0.09952788
54	0x3c582879	0.013193243
55	0x3e613554	0.21993
56	0x3d844f39	0.06460423
57	0xbd50c75a	-0.050971366
58	0xbce077de	-0.027400907
59	0xbe4171d8	-0.18891084
60	0x3c38f77b	0.011289473
61	0x3d69da69	0.057093058
62	0x3c43ad90	0.011943236
63	0xbe80a4d8	-0.25125766
64	0x3e93aad9	0.28841284
65	0x3d19f3d7	0.03758606
66	0xbe3fb7de	-0.18722484
67	0xbdf193fc	-0.11795804
68	0xbccba76f	-0.024860112
69	0xbe990879	-0.29889277
70	0xb9077782	-0.00012919123
71	0xbe671a0b	-0.22568528
72	0x378597f6	1.5925598e-05
73	0xbe5a93cb	-0.21345441
74	0x3e443f2c	0.19164723
75	0x3e1a81c7	0.15088569
76	0x3d902e10	0.07040036
77	0x3dd504a9	0.104012795
78	0xbbd9bcfb	-0.0066448427
79	0x3db1c16a	0.08679469
80	0xb8f0fba3	-0.00011490963
81	0x3e135c80	0.14390755
82	0xba0c27ed	-0.00053465256
83	0xbd8f827a	-0.07007308
84	0xbe9b8311	-0.30373433
85	0xbe4e6bac	-0.20158261
86	0xbd91df13	-0.07122626
87	0xbe1c2bac	-0.15251034
88	0xbc231816	-0.009954473
89	0x3d2b0153	0.04174931
90	0xbcae6da6	-0.021292519
91	0x3dfed31a	0.12442608
92	0xbba9cda6	-0.005181986
93	0xbde0ded6	-0.109800026
94	0xbe906873	-0.28204688
95	0xbe7b9002	-0.24566653
96	0xbe05f8d3	-0.130832
97	0x3e857e50	0.2607293
98	0x3cad37a5	0.021144697
99	0x3d96af41	0.07357646

fc2.bias f4 [10]
0	0x37f79d49	2.9517936e-05
1	0x384bdb3a	4.8603142e-05
2	0x394cfde9	0.00019549545
3	0x3d2c8c23	0.042125832
4	0xb7f57f47	-2.9265544e-05
5	0xbb5814b4	-0.0032971324
6	0xbd01280e	-0.03153234
7	0x39bc77d5	0.00035947436
8	0x39b8afd8	0.0003522623
9	0x3d73b293	0.059496474

fc3.weight f4 [10, 10]
0	0x384fec35	4.957263e-05
1	0xbe5c5e49	-0.21520342
2	0x3a5035e2	0.00079425995
3	0x3e0213c6	0.12702855
4	0xbe5bc698	-0.21462476
5	0x3ea5551f	0.32291505
6	0x3dcbfffe	0.09960936
7	0x3e51d7f7	0.2049254
8	0x3c4dd194	0.012562174
9	0xbdcf89ef	-0.101337306
10	0xb808ae4b	-3.258725e-05
11	0x3d5c6915	0.05381115
12	0xb896e79c	-7.195698e-05
13	0xbe821f8b	-0.2541469
14	0x3e6ca680	0.2311039
15	0x3e55b632	0.20870283
16	0x3e8c181a	0.27362138
17	0x3d608448	0.054813653
18	0x3bda5e92	0.0066641057
19	0xbd78cc99	-0.060741995
20	0x3d4d7f08	0.050169975
21	0x3e1fc863	0.15603785
22	0x3c8b5a3b	0.017010799
23	0xbc8642a4	-0.016389199
24	0xbe927566	-0.28605193
25	0xbe833bd9	-0.25631598
26	0xbdbfd547	-0.09366851
27	0x3dbffbd9	0.09374208
28	0x3ca7c16c	0.020477973
29	0xbe142f49	-0.14471163
30	0xbd223445	-0.03960063
31	0xbe44eebc	-0.19231695
32	0x3ad89bb4	0.0016525895
33	0x3e8d84c7	0.27640364
34	0xbe2db43d	-0.16963287
35	0xbde7954f	-0.11307775
36	0x3ddadf25	0.10687093
37	0xbe4c1723	-0.19930701
38	0x3c4995d4	0.012303788
39	0xbe992350	-0.29909754
40	0x385cbf91	5.2630498e-05
41	0x3c562ed4	0.013072688
42	0xbab22c1b	-0.0013593467
43	0x3e3b79a5	0.18308122
44	0xbdf6aaf8	-0.120443285
45	0xbd9bc447	-0.07605796
46	0xbdb56be5	-0.0885847
47	0x3e2bce84	0.16777998
48	0xbba516b8	-0.0050381087
49	0xbe93427a	-0.28761655
50	0xb8aaf3d7	-8.1516504e-05
51	0x3c006e26	0.007838761
52	0x3ae9dfa1	0.0017843136
53	0x3e9ee921	0.31037238
54	0xbe9fb867	-0.31195375
55	0x3e4102ad	0.18848677
56	0xbe60c1df	-0.21948956
57	0xbe13f4d4	-0.14448863
58	0x3af601c3	0.0018768836
59	0x3e3dc025	0.18530329
60	0x37b73e2e	2.1844255e-05
61	0x3e2cda3b	0.16880123
62	0x3aef35e1	0.001825031
63	0x3e7753e3	0.24153094
64	0xbded7147	-0.115938716
65	0xbdf754b7	-0.12076705
66	0x3e1c4fd7	0.15264831
67	0xbe14a160	-0.14514685
68	0xbc8fd177	-0.017555935
69	0x3d76be70	0.06024021
70	0x3756aa91	1.2795107e-05
71	0x3e873633	0.26408538
72	0xb8da2299	-0.000104014944
73	0x3da0e841	0.07856799
74	0xbe730241	-0.23731329
75	0xbcba1e3c	-0.022719495
76	0xbe60aa6e	-0.21940014
77	0xbdc4be3d	-0.096065976
78	0xbc366c60	-0.011134237
79	0xbde11b0c	-0.10991487
80	0xb8f50576	-0.000116835276
81	0xbe7326a1	-0.23745205
82	0xbaad6fee	-0.001323221
83	0x3e90e579	0.28300074
84	0x3e9d7934	0.30756533
85	0xbe079494	-0.13240272
86	0xbe9771e1	-0.2957907
87	0x3c99855a	0.018740345
88	0xbad90ff5	-0.0016560542
89	0x3e6fe28d	0.23426266
90	0xb797d4b1	-1.8099645e-05
91	0x3e0c8e29	0.13726105
92	0xbad6d868	-0.0016391398
93	0xbdc2e387	-0.09516054
94	0xbdf71874	-0.12065211
95	0x3df3a75e	0.11897157
96	0x3bb68106	0.00556958
97	0x3e9db67a	0.3080328
98	0x3beb8bbf	0.00718829
99	0xbe87fcdf	-0.26560113

fc3.bias f4 [10]
0	0xb9663675	-0.00021954796
1	0x396aba68	0.00022385421
2	0xbe0f8485	-0.14015396
3	0x3de28e67	0.11062317
4	0xb968587a	-0.00022158204
5	0x398eb35e	0.0002721799
6	0xb8cf9e4d	-9.900015e-05
7	0xb8317d9a	-4.2317064e-05
8	0x39e7f6c0	0.00044243596
9	0xb7876083	-1.6138196e-05

fc4.weight f4 [10, 10]
0	0xbb0abe50	-0.0021170564
1	0x3c3a8ae8	0.011385657
2	0x3bc7c6c7	0.006096694
3	0x3b01194b	0.0019698914
4	0x3c8e6ae2	0.01738495
5	0xbaba7dd0	-0.0014228169
6	0xbbec762b	-0.007216235
7	0x3bb4e32c	0.005520245
8	0x3bb64bf0	0.0055632517
9	0xbc9ee461	-0.019396009
10	0xbc9fe067	-0.019516183
11	0x3c68f4ba	0.014218504
12	0x3bc4d6cd	0.0060070516
13	0xbcf99b89	-0.030469673
14	0xbbf24a6a	-0.0073941248
15	0x3d2c9a5a	0.04213939
16	0x3be34097	0.00693519
17	0x3aa8a7a4	0.0012867344
18	0x3cd3a31c	0.025834613
19	0x3b427600	0.0029672384
20	0xb897bc7a	-7.2353476e-05
21	0x39fd6c9a	0.00048336835
22	0xbc06a32e	-0.008217616
23	0xbc1d127e	-0.009586928
24	0xbc3f083e	-0.01165968
25	0x3c9eff29	0.01940878
26	0x3ba29c0b	0.0049624494
27	0xbbd99277	-0.0066397744
28	0x3bc86d37	0.006116535
29	0xbc8be10c	-0.017075084
30	0x3cecdacb	0.028912922
31	0xbdbb5b24	-0.09148243
32	0xbd807144	-0.06271604
33	0x3d463f92	0.04840047
34	0x3da0c07b	0.07849213
35	0xbd10fa75	-0.035395104
36	0xbc3631b3	-0.011120248
37	0xbd496af1	-0.049174253
38	0xbd2b6320	-0.04184258
39	0x3b04de47	0.002027409
40	0xbccfc0d0	-0.025360495
41	0xbc47cfe9	-0.012195566
42	0xba2f7be8	-0.00066941837
43	0x3cfa0d98	0.03052406
44	0x3cb12354	0.021623291
45	0xbd164bf7	-0.03669354
46	0xbb0d755e	-0.002158485
47	0xbbdcd64e	-0.0067394143
48	0xbd35c8ad	-0.044380832
49	0xbc5d4ca8	-0.013507046
50	0xbcfeca88	-0.031102434
51	0xbd0cee68	-0.03440705
52	0xbd49171a	-0.049094297
53	0x3c492605	0.012277131
54	0x3be8df67	0.0071067098
55	0x3c7de37d	0.015496132
56	0x3c18bc17	0.009322188
57	0xbc9aa77c	-0.01887869
58	0x3bd1181d	0.0063810484
59	0xbd19aa25	-0.037515778
60	0xbd1abec3	-0.03777958
61	0xbcd21b83	-0.025647884
62	0xbd005a7f	-0.031336304
63	0x3d053971	0.032525484
64	0x3ca4ff44	0.020141251
65	0xbc8b9396	-0.017038148
66	0x3c6b43d1	0.01435943
67	0x398ede67	0.00027250053
68	0xbd056fd0	-0.032577336
69	0xbcbdeb55	-0.023183504
70	0x3cc52436	0.024065118
71	0x3b1a01a7	0.002349952
72	0x3cedede2	0.029044095
73	0xbc23b4b9	-0.009991818
74	0x3c045e9e	0.008079199
75	0x3bc2a091	0.005939551
76	0xbcaa3223	-0.02077586
77	0x3bda7f9c	0.0066680443
78	0x3c711bbd	0.014716086
79	0x3cc9e42c	0.024644934
80	0x3c5d72e2	0.01351616
81	0xbc2bffdf	-0.010498016
82	0xb8c33e31	-9.309909e-05
83	0x38b07a4a	8.415112e-05
84	0xbc4b334f	-0.01240237
85	0xbbeada0e	-0.0071671074
86	0x3b102f67	0.002200091
87	0xba9962b4	-0.001170239
88	0xbb547533	-0.003241849
89	0x3c04e8db	0.008112158
90	0x3d4e4f39	0.05036852
91	0x3d3c55c0	0.045980215
92	0x3d1c8460	0.03821218
93	0xbd737cf5	-0.05944534
94	0xbcf186ed	-0.029483283
95	0x3d056fdb	0.032577377
96	0xbd081ace	-0.033228688
97	0x3bd7013d	0.006561427
98	0x3d5b0e53	0.053480458
99	0x3c07327e	0.008251784

fc4.bias f4 [10]
0	0xbe3e5197	-0.18585812
1	0xbeb08700	-0.34477997
2	0xbe3d71df	-0.1850047
3	0xbe8a11cf	-0.26966712
4	0x3ebee8ff	0.37287137
5	0x3f0c0972	0.5470191
6	0x3fbc8a33	1.4729675
7	0x3f4e4b7c	0.8058393
8	0xbe3929ed	-0.180824
9	0x3f7f61aa	0.997584

fc5.weight f4 [433, 10]
0	0xbe5a4ca9	-0.21318306
1	0xbe21d85c	-0.15805191
2	0xbde13bd3	-0.10997739
3	0xbe769618	-0.24080694
4	0xbf0d38b1	-0.5516463
5	0xbf14e2aa	-0.5815836
6	0xbf543854	-0.8289845
7	0xbf1bf99a	-0.60927737
8	0xbe2f1939	-0.17099465
9	0xbf364ac6	-0.71207845
10	0x3ccc1c92	0.024915967
11	0xbd4d0545	-0.050053854
12	0xbcdd43e5	-0.027009914
13	0x3d3e64c6	0.046482824
14	0xbc4d7110	-0.012539163
15	0x3bebd63f	0.007197171
16	0xbb5ffcac	-0.0034177704
17	0xbc3f0a30	-0.011660144
18	0x3c7fda11	0.015615956
19	0xbc4c5fd7	-0.012474022
20	0xbe80614e	-0.25074238
21	0xbe68748c	-0.22700709
22	0xbe49aa04	-0.19693762
23	0xbee8c2d7	-0.4546115
24	0xbf732301	-0.94975287
25	0xbf7e20bb	-0.9926869
26	0xbf9ff57c	-1.2496791
27	0xbf7290b3	-0.94752043
28	0xbe7045e3	-0.2346416
29	0xbf91a05b	-1.1377062
30	0x3ce98206	0.028504383
31	0xbe009b1c	-0.1255917
32	0xbd153ce5	-0.036435027
33	0xbda111aa	-0.07864697
34	0x3db26bf1	0.087119944
35	0x3ddc1288	0.10745722
36	0x3eaba2c1	0.3352261
37	0x3e3a4218	0.18189275
38	0xbd4e801c	-0.050415143
39	0x3e675188	0.22589695
40	0x3bb003f4	0.005371565
41	0x3dfb3060	0.12265086
42	0x3cd50841	0.026004912
43	0xbd523f9a	-0.051330186
44	0xbc89780c	-0.016780876
45	0x3c97a600	0.018511772
46	0x3c3c9b2e	0.011511607
47	0x3c311f48	0.010810681
48	0x3cd8adde	0.026450094
49	0x3c038e8c	0.008029591
50	0x3d87373f	0.06602334
51	0x3d8fb1ef	0.0701636
52	0x3d314688	0.043280154
53	0x3d30550a	0.04304985
54	0x3d1d3c7b	0.038387757
55	0x3cbf1da8	0.02332957
56	0x3de86ba9	0.113486595
57	0x3d75f04c	0.060043618
58	0x3c0d5998	0.008627318
59	0x3d560d3c	0.052258715
60	0xbb9c54b2	-0.0047708387
61	0xbc80f3cf	-0.015741257
62	0x3cba03ff	0.022706984
63	0x3cc3f27e	0.02391934
64	0x3c216f41	0.009853185
65	0x3c8de0ec	0.017319165
66	0x3d65dfca	0.056121625
67	0x3cd7bd55	0.026335398
68	0x3cd7e443	0.02635396
69	0x3cec5593	0.028849399
70	0x3dcfbfd3	0.101440094
71	0x3d315e63	0.043302905
72	0x3d07c735	0.033148963
73	0x3e3678e9	0.17819561
74	0x3f52b3a3	0.82305354
75	0x3f505b67	0.8138947
76	0x3f5a87a8	0.85363245
77	0x3f2a97b5	0.66637737
78	0xbccda3f0	-0.025102586
79	0x3f63afaa	0.8893992
80	0x3d63b22b	0.055589836
81	0x3d275060	0.040848136
82	0xbc80e231	-0.015732856
83	0xbdf458b3	-0.119309805
84	0x3d81d3db	0.06339236
85	0x3dc0966e	0.09403692
86	0x3ed6522f	0.41859576
87	0x3e3fbab6	0.18723568
88	0x3c70f4e6	0.014706826
89	0x3e69ae4c	0.22820395
90	0x3e86e100	0.26343536
91	0x3e81645e	0.25271887
92	0x3e3b6394	0.18299705
93	0x3e685ebb	0.22692387
94	0x3f699864	0.91248155
95	0x3f824815	1.0178248
96	0x3ff49ef7	1.9111012
97	0x3f978f14	1.1840539
98	0x3ec37c13	0.381806
99	0x3fb95941	1.4480363
100	0xbd4f0b91	-0.05054814
101	0x3ba0961e	0.004900708
102	0x3d7ef105	0.062241573
103	0x3d4502c6	0.048098348
104	0xbc276f1e	-0.0102193635
105	0xbbbe7ff5	-0.0058135935
106	0x3c253c40	0.0100851655
107	0xbbf8d34d	-0.0075935484
108	0x3b24152d	0.0025037036
109	0x3cb41616	0.021983188
110	0x3ceed171	0.029152604
111	0x3c485960	0.01222834
112	0x3c6a3c88	0.014296658
113	0x3d21b2e2	0.039477237
114	0x3bc281c2	0.0059358785
115	0x3cc09925	0.023510525
116	0x3ea3817a	0.3193472
117	0x3dfcd561	0.12345386
118	0x3d29cfda	0.04145799
119	0x3e1a6f87	0.15081607
120	0xbe9ff9c0	-0.31245232
121	0xbeac2420	-0.3362131
122	0xbe38dea1	-0.18053676
123	0xbf2f1d28	-0.68403864
124	0xbf5f2fee	-0.8718251
125	0xbf67b704	-0.90513635
126	0xbf61c500	-0.88191223
127	0xbf55350c	-0.8328407
128	0xbea67705	-0.3251268
129	0xbf655500	-0.89582825
130	0xbeb7d9b9	-0.35908297
131	0xbee3266d	-0.44365254
132	0xbec2846b	-0.37991652
133	0xbf099025	-0.5373557
134	0xbf49d148	-0.7883496
135	0xbf4a21c4	-0.7895777
136	0xbf442553	-0.7661945
137	0xbf300bb3	-0.6876785
138	0xbea99039	-0.33117846
139	0xbf4a6f8c	-0.7907646
140	0x3c07fb4c	0.00829966
141	0xbd5b7e2d	-0.053587127
142	0xbca88adc	-0.020574026
143	0xbd010a42	-0.031503923
144	0x3ddf7730	0.10911405
145	0x3e145e6d	0.14489146
146	0x3f33f680	0.70298004
147	0x3ea43b23	0.32076368
148	0x3cf76638	0.030200109
149	0x3ec77173	0.38953742
150	0x3c7cbaa3	0.015425357
151	0x3d334b97	0.04377326
152	0xbba1b59c	-0.0049349796
153	0xbd1e38f3	-0.03862853
154	0x3e5b4b96	0.21415552
155	0x3e7372ed	0.2377431
156	0x3f3db719	0.7410751
157	0x3ec524f1	0.38504747
158	0x3b145c7f	0.002263814
159	0x3ef5523a	0.47914296
160	0xbef93e8b	-0.4868053
161	0xbf760374	-0.9609902
162	0xbf10dffa	-0.5659176
163	0xbf6b0cc3	-0.9181635
164	0xbf98f4a7	-1.1949662
165	0xbfa26790	-1.2687855
166	0xbf821045	-1.0161215
167	0xbf8eada1	-1.1146737
168	0xbf31d119	-0.6945968
169	0xbf91d509	-1.1393138
170	0xbefd94eb	-0.49527678
171	0xbf74201b	-0.9536149
172	0xbf10d570	-0.5657568
173	0xbf5a09ef	-0.8517141
174	0xbf87cfad	-1.0610253
175	0xbf9515b5	-1.164725
176	0xbf8c9a65	-1.0984617
177	0xbf9147f1	-1.135008
178	0xbf3d611a	-0.7397629
179	0xbf8a3467	-1.0797242
180	0xbf713d1a	-0.9423386
181	0xbf978f04	-1.184052
182	0xbf911c1c	-1.1336703
183	0xbfd6f8d2	-1.6794684
184	0xbfde2d63	-1.7357601
185	0xbfe9eca9	-1.8275348
186	0xbfca09f9	-1.5784293
187	0xbfe6585c	-1.7995715
188	0xbfcb69da	-1.5891678
189	0xbfe2cc08	-1.7718515
190	0xbefc7b09	-0.49312618
191	0xbf7cd9fc	-0.9877012
192	0xbf24f2d2	-0.64433014
193	0xbf6b2a70	-0.9186163
194	0xbf74e663	-0.9566404
195	0xbf87b7b1	-1.0602933
196	0xbfb8f6bd	-1.4450299
197	0xbfaa85ca	-1.3322079
198	0xbf4da9c0	-0.8033714
199	0xbf8e4320	-1.1114235
200	0xbe7e0219	-0.24805488
201	0xbeaf885d	-0.34283724
202	0xbe31005e	-0.17285296
203	0xbea15999	-0.3151367
204	0xbf4c573e	-0.7982062
205	0xbf545629	-0.8294397
206	0xbf4b1442	-0.79327786
207	0xbf313fa4	-0.6923773
208	0xbe892ffe	-0.26794428
209	0xbf571d42	-0.8402902
210	0xbee51a07	-0.4474642
211	0xbf623322	-0.8835927
212	0xbf01c757	-0.50694793
213	0xbf5cf6ee	-0.86314285
214	0xbf90428d	-1.127031
215	0xbf99fe35	-1.2030703
216	0xbf8b1d87	-1.0868386
217	0xbf8ec9cc	-1.1155334
218	0xbf2b8d10	-0.6701212
219	0xbf90add9	-1.1303054
220	0xbf56977b	-0.8382489
221	0xbf957ada	-1.1678116
222	0xbf3bff8a	-0.73436797
223	0xbf8b9ee4	-1.0907865
224	0xbf8f8d51	-1.1215001
225	0xbfa364e6	-1.2765167
226	0xbfb7bde9	-1.4354831
227	0xbfc0a372	-1.504988
228	0xbf900fc8	-1.1254816
229	0xbf993ed2	-1.1972296
230	0xbf477e64	-0.7792723
231	0xbfa58490	-1.293108
232	0xbf6538c9	-0.8953977
233	0xbf91f7ed	-1.1403786
234	0xbf9efef8	-1.242156
235	0xbfb3810b	-1.4023756
236	0xbf9dd855	-1.2331644
237	0xbfb8be5f	-1.4433097
238	0xbf89b27d	-1.0757595
239	0xbf96a394	-1.176867
240	0xbea3aebd	-0.31969252
241	0xbf04715e	-0.51735485
242	0xbe51e006	-0.20495614
243	0xbeb24f5d	-0.34826174
244	0xbf3d6640	-0.73984146
245	0xbf497f69	-0.7871004
246	0xbf3ff97b	-0.7499005
247	0xbf356b5a	-0.7086693
248	0xbeb9ae0f	-0.3626561
249	0xbf45d40c	-0.7727668
250	0xbf27cc6b	-0.6554629
251	0xbf91c743	-1.1388935
252	0xbf433241	-0.76248556
253	0xbf9dfd1f	-1.2342871
254	0xbfb66a63	-1.4251217
255	0xbfbcc629	-1.4747974

fc5.bias f4 [433]
0	0xbec48e99	-0.38390043
1	0xbe04ebc1	-0.12980558
2	0xbf53f1f0	-0.8279104
3	0x3eca2638	0.39482284
4	0x3c4da098	0.012550496
5	0x3e0d3289	0.13788809
6	0x3f07f97b	0.5311505
7	0x3f1c4443	0.6104166
8	0x3f18c550	0.59676075
9	0x3f93b461	1.1539422
10	0x3df407dc	0.119155616
11	0x3f81fd84	1.0155492
12	0xbf4d6e33	-0.80246276
13	0xbf2c09c0	-0.6720238
14	0x3f5d7d6c	0.86519504
15	0x3ee41920	0.4455042
16	0xbf8c757a	-1.0973351
17	0xbf9fbcd0	-1.2479496
18	0xbf9db996	-1.2322261
19	0xbf82523a	-1.0181344
20	0xbf5c66b0	-0.8609419
21	0xbf4784c9	-0.7793699
22	0xbf7b8009	-0.9824224
23	0xbf84a84b	-1.0363859
24	0xbf35bc18	-0.70990133
25	0xbf871096	-1.0551937
26	0xbf4b6bf2	-0.79461586
27	0xbf97bdb3	-1.1854767
28	0xbf8084d4	-1.0040536
29	0xbf5c7db1	-0.8612929
30	0xbe9b753b	-0.30362877
31	0xbf00d116	-0.5031904
32	0xbf4e8984	-0.8067858
33	0xbea93943	-0.330515
34	0xbf2c4a6c	-0.6730106
35	0xbedf098d	-0.43561974
36	0xbf46e4cb	-0.7769286
37	0xbeacb433	-0.3373123
38	0x3e8e943f	0.27847478
39	0xbf29287d	-0.66077405
40	0xbe9605ed	-0.29301396
41	0xbeb0c945	-0.34528556
42	0xbf1da24e	-0.6157578
43	0xbf3882ad	-0.72074395
44	0xbebb9fd0	-0.36645365
45	0x3fc803ce	1.5626161
46	0x3f41cf2d	0.7570675
47	0x3f278284	0.65433526
48	0x3fb3c8e7	1.4045686
49	0x3e2cc7cf	0.16873096
50	0x3dfdccd6	0.12392585
51	0xbe5d5e2a	-0.21617952
52	0xbc9bbfab	-0.019012293
53	0x3eeb25e4	0.45927346
54	0x3fd04f1f	1.6274146
55	0xbf4fcde3	-0.81173533
56	0xbecd0c89	-0.40048626
57	0xbf488b93	-0.78337973
58	0xbf53f10a	-0.8278967
59	0xbf6deaf9	-0.92936665
60	0xbf0e3253	-0.5554554
61	0xbf0e11b2	-0.5549575
62	0xbf808cc0	-1.0042953
63	0xbf1bfe0a	-0.6093451
64	0xbf1adfcb	-0.6049773
65	0xbecf96b8	-0.40544677
66	0xbf537262	-0.8259641
67	0x3f876ac6	1.057946
68	0xbf360e35	-0.7111543
69	0xbf90cd81	-1.1312715
70	0xbf6aaf5c	-0.9167383
71	0xbf9018f3	-1.1257614
72	0xbf54d3a2	-0.83135426
73	0xbf4d26e2	-0.80137455
74	0xbf28dbc4	-0.65960336
75	0xbf2bdf2a	-0.67137396
76	0xbf138b08	-0.5763402
77	0xbf05d506	-0.5227817
78	0xbf2e17b1	-0.680049
79	0xbf2ed12d	-0.68287927
80	0xbf8fa630	-1.1222591
81	0xbfa69204	-1.301331
82	0xbf43d302	-0.7649385
83	0xbee6a233	-0.45045623
84	0xbf6bd205	-0.9211734
85	0xbf0ff979	-0.5624004
86	0xbf53dfc6	-0.82763326
87	0xbf1a9a95	-0.60392123
88	0xbf38e1e1	-0.72219664
89	0xbf075416	-0.5286268
90	0xbf4360e2	-0.76319706
91	0xbf1f801f	-0.6230487
92	0xbf2dfe37	-0.67966026
93	0xbf6c4043	-0.92285556
94	0x3f8a3b53	1.0799354
95	0xbf118b16	-0.56852853
96	0xbf546137	-0.8296084
97	0xbf3ddf8a	-0.7416922
98	0xbf7c53f3	-0.98565596
99	0xbf45e90f	-0.77308744
100	0xbf312484	-0.69196343
101	0xbf3b49cf	-0.731595
102	0xbf4a5bca	-0.7904631
103	0xbf176042	-0.5913125
104	0xbf22f27d	-0.6365126
105	0xbf1312be	-0.57450473
106	0xbf4b1ee4	-0.7934401
107	0xbeacc098	-0.33740687
108	0xbf1afd49	-0.6054273
109	0xbf7bf00b	-0.9841315
110	0xbf5a0007	-0.8515629
111	0xbf20fa97	-0.6288237
112	0xbf2cd7d2	-0.67516816
113	0xbf54ddca	-0.83150923
114	0xbf39e007	-0.72607464
115	0xbf032a8f	-0.51236814
116	0xbf22a6d0	-0.63535786
117	0xbf2e1ab5	-0.680095
118	0x3f957323	1.1675762
119	0xbf78a74a	-0.9713026
120	0xbf6790fa	-0.9045559
121	0xbfbaa1fa	-1.4580681
122	0xbf316b1e	-0.6930407
123	0xbf671046	-0.90259206
124	0xbf003199	-0.5007568
125	0xbf3b17d9	-0.73083264
126	0xbf2c8d84	-0.67403436
127	0xbf1a49b8	-0.60268736
128	0xbf017884	-0.5057452
129	0xbf533967	-0.82509464
130	0xbf3d26a7	-0.73887104
131	0xbf1c7591	-0.6111689
132	0xbf7e76a9	-0.9939981
133	0xbf3f6b41	-0.7477303
134	0xbf65cad3	-0.8976261
135	0xbf749311	-0.95536906
136	0xbf40bc3c	-0.7528722
137	0xbf1fdc5c	-0.62445617
138	0xbf49db87	-0.788506
139	0xbf7ba76b	-0.98302335
140	0xbf3bd955	-0.733785
141	0x3f818a66	1.0120361
142	0xbf6d8fd4	-0.9279759
143	0xbec0673c	-0.37578762
144	0xbef0b8d2	-0.47016007
145	0xbf3118b6	-0.6917833
146	0xbf6ad8c3	-0.91737
147	0xbefd77e9	-0.49505547
148	0xbf91fd08	-1.1405344
149	0xbf958ead	-1.1684166
150	0xbf9b78d2	-1.2146246
151	0xbf677768	-0.90416574
152	0xbf6c6340	-0.92338943
153	0xbf801a78	-1.0008078
154	0xbf83bf44	-1.0292745
155	0xbf85200a	-1.0400403
156	0xbf98b413	-1.1929954
157	0xbf87daa8	-1.0613604
158	0xbf984c9e	-1.1898382
159	0xbf8450f5	-1.0337206
160	0x3f88610c	1.0654616
161	0xbf8732eb	-1.0562414
162	0xbf3d3f2f	-0.73924536
163	0xbf8ead56	-1.1146648
164	0xbf93faf4	-1.156096
165	0xbf565d6b	-0.83736295
166	0xbf73804e	-0.9511765
167	0xbf2075c4	-0.62679696
168	0xbf309d92	-0.68990433
169	0xbf3a7b61	-0.7284451
170	0xbf2293b0	-0.63506603
171	0xbf2b94be	-0.6702384
172	0xbf18f367	-0.597464
173	0xbf132991	-0.574853
174	0xbf2021ae	-0.6255139
175	0xbf2de070	-0.6792059
176	0xbf0b9eac	-0.5453899
177	0xbf4916ea	-0.7855059
178	0xbf258ab1	-0.6466475
179	0xbf90c223	-1.1309246
180	0xbf920e70	-1.1410656
181	0xbf99e87e	-1.2024076
182	0xbfb2f5ef	-1.3981303
183	0xbf8a2799	-1.0793334
184	0xbf850f33	-1.0395263
185	0xbf530520	-0.82429695
186	0xbf5d4362	-0.86430943
187	0xbf6c7fb7	-0.9238238
188	0xbf98459a	-1.1896241
189	0xbf6a43e0	-0.9150982
190	0xbf80d999	-1.0066406
191	0xbf793668	-0.9734864
192	0xbf6ffbb8	-0.9374347
193	0xbf535035	-0.8254426
194	0xbf7438ab	-0.9539897
195	0xbf58f61b	-0.8475053
196	0xbf93682a	-1.1516163
197	0xbeeaae16	-0.45835942
198	0xbf012bd5	-0.5045751
199	0xbf572f22	-0.84056294
200	0xbf970556	-1.1798503
201	0xbf062394	-0.5239804
202	0xbf1ac5c1	-0.60458
203	0xbf28c88a	-0.65931
204	0xbf1f06d9	-0.62119824
205	0xbf38398d	-0.71962816
206	0xbec6303a	-0.3870867
207	0xbf4f99b1	-0.8109389
208	0xbf7d07ca	-0.9884001
209	0xbf3bdf0b	-0.7338721
210	0xbf658c89	-0.89667565
211	0xbf115bc7	-0.56780666
212	0xbf19dede	-0.60105693
213	0xbeff32ca	-0.49843436
214	0xbf72020f	-0.9453439
215	0xbf8db4f2	-1.1070845
216	0xbf83c695	-1.0294977
217	0xbf817b47	-1.0115746
218	0xbf366004	-0.7124026
219	0xbf83e0d2	-1.0302985
220	0xbf3c2083	-0.7348711
221	0xbf78860c	-0.9707954
222	0xbf7698b4	-0.96326756
223	0xbf2d3e69	-0.67673355
224	0xbf2a31f3	-0.66482466
225	0xbf6591af	-0.8967542
226	0xbf22914e	-0.6350297
227	0xbf3d1cf6	-0.73872316
228	0xbf54500d	-0.8293465
229	0xbf65c308	-0.8975072
230	0xbf83cf77	-1.0297688
231	0xbf90629e	-1.1280096
232	0xbf48ff60	-0.7851467
233	0xbf1322f3	-0.57475203
234	0xbf58874c	-0.84581447
235	0xbf773507	-0.9656529
236	0xbf5afe24	-0.8554404
237	0xbf819301	-1.0122987
238	0xbf1f1b05	-0.62150604
239	0xbef117c2	-0.47088438
240	0xbf7b4770	-0.9815588
241	0xbeeef0ed	-0.46668187
242	0xbf13637e	-0.5757369
243	0xbf2df6f1	-0.6795493
244	0xbf1f8782	-0.62316144
245	0xbf36a0d7	-0.7133917
246	0xbf5a46d5	-0.8526433
247	0xbf322b47	-0.69597286
248	0xbf5e3c3e	-0.8681067
249	0xbf753437	-0.957828
250	0xbecae8bb	-0.39630684
251	0xbe9c2123	-0.3049403
252	0xbf0bc70b	-0.5460059
253	0xbf2c27aa	-0.6724802
254	0xbf81d2e7	-1.0142487
255	0xbf8460cd	-1.0342041
